language_model_3.pth (torch, 25060 bytes, 39 tensors)

position_embeddings f4 [1, 5, 5]
000000 82 b6 58 3d 28 93 4d bd 5f df 4e 3d 58 91 3d bd
       0.052908428 -0.050189167 0.050505992 -0.04628119
000010 72 23 50 bd 4a 29 56 3d 2b 50 4d bd 45 11 4e 3d
       -0.050815053 0.05228547 -0.050125282 0.05030944
000020 74 4e 40 bd 24 0c 4d bd fd fc 57 3d b3 88 4e bd
       -0.04694982 -0.050060406 0.052731503 -0.050423335
000030 0c e6 4c 3d 39 28 3d bd 29 11 4d bd 47 99 53 3d
       0.050024077 -0.046180937 -0.050065193 0.05165985
000040 ee 6b 4c bd c8 e6 50 3d f3 68 47 bd ce 13 55 bd
       -0.049907617 0.05100134 -0.04868407 -0.05202084
000050 06 8e 71 bd 74 a5 eb 3c bd 6d 26 bd b5 07 fc bc
       -0.058973335 0.028765418 -0.040632 -0.030765394
000060 74 7f 82 3d
       0.06371966

in_proj_weight f4 [15, 5]
000000 d0 a9 0c bf 75 2b 7d bc 8b f3 90 3e b5 72 08 be
       -0.54946613 -0.0154522555 0.2831081 -0.13325007
000010 66 ca 68 3e 02 9b 09 be 2e 30 3c be 1b 6f 97 bc
       0.22733459 -0.13438037 -0.18377754 -0.018485596
000020 d1 bd 00 3f dd 9b a3 3d ff af 77 3e c6 f3 08 3f
       0.50289637 0.07988713 0.24188231 0.5349697
000030 73 15 ed 3d a7 6a 1a 3e 1e c9 b0 3e 7a 82 2e 3e
       0.11576357 0.15079747 0.3452844 0.1704196
000040 47 9b e7 be c9 06 0e 3e 73 0b 36 be f2 34 a6 bc
       -0.45235655 0.13869776 -0.17777805 -0.020288918
000050 64 a9 cf bc 5f 65 9d be 4b 09 b1 3e 92 51 02 be
       -0.025349326 -0.30741403 0.34577402 -0.12726429
000060 de 87 9c 3e 95 46 1e be f3 af aa be b5 ad 80 bd
       0.30572408 -0.15456612 -0.33337364 -0.06283132
000070 4f 63 9b be dc d8 ab be 70 ec 45 3e fb 48 94 bd
       -0.30349204 -0.33563888 0.19328475 -0.072404824
000080 6e d9 db bd e0 89 87 3e 79 e4 e4 bc 0a d7 ce be
       -0.10734831 0.26472378 -0.027940976 -0.40398437
000090 bb 38 d3 3e d7 ec fc 3e 27 70 5a be d7 5a 0b 3f
       0.4125422 0.49399444 -0.21331845 0.54435486
0000a0 0d 3e dc 3e ca 8b 97 be 38 4f 97 be 55 67 d5 3e
       0.4301609 -0.29598838 -0.29552627 0.416804
0000b0 56 b5 1d 3e b4 9e 15 3e 59 b3 87 be 29 fb 23 3e
       0.15401205 0.14611322 -0.2650402 0.16013779
0000c0 c3 de 14 3e f2 42 cc be e9 1b 74 3e 5a 5a dc be
       0.14538102 -0.39894825 0.23838772 -0.43037683
0000d0 57 26 1f 3f 46 3c 1c 3d 81 d4 db be 12 bb c6 3e
       0.62167877 0.03814342 -0.42935565 0.38814598
0000e0 1a 51 1d be 19 60 4c 3e 5a c8 cf 3e e0 16 dd be
       -0.15362969 0.19958533 0.40582544 -0.43181515
0000f0 79 2a 26 3e 02 84 18 3e 30 46 0d be fd c9 22 3f
       0.1622714 0.14894107 -0.13796306 0.6358946
000100 4d 7d 3f 3d b4 f5 93 be 3a 16 56 3e 8e 77 ec 3d
       0.046750356 -0.28898394 0.20906916 0.11546241
000110 c5 b0 ca be 59 e7 c0 bc 8b 7e ad 3e 03 5a 22 3e
       -0.3958799 -0.023547815 0.33885607 0.15854649
000120 52 c8 e6 3e 9d d0 21 3e df 40 92 bd
       0.45074707 0.15802236 -0.071412794

in_proj_bias f4 [15]
000000 81 f2 52 bc bb 2d a5 bd a8 e5 bf 3d 94 da 92 bd
       -0.0128752 -0.08065363 0.09369975 -0.07170597
000010 f8 1f 7f 3d 77 72 11 37 ad 59 28 33 bd a4 b5 b5
       0.062286347 8.669324e-06 3.9197108e-08 -1.3533496e-06
000020 a2 f9 ae 35 a1 be 42 37 cc 8e 78 3d 1a 3e 61 bd
       1.3036663e-06 1.1607685e-05 0.060683057 -0.054990865
000030 cd 4c 9f bd a7 a7 8d bd 49 e2 96 3d
       -0.077783205 -0.06916743 0.07367379

weight f4 [5, 5]
000000 cf 0e 4b be 96 26 df bd 7f df 28 3e 90 98 1e be
       -0.19829868 -0.108960316 0.16491507 -0.15487885
000010 66 e7 8f be 84 38 b3 3d 7b 8c a1 bc 74 3b 15 3e
       -0.2810623 0.08751014 -0.019720307 0.14573461
000020 8d 1b 24 bd b6 78 8c bd 3a 36 b9 be d0 ad 7c 3c
       -0.040065337 -0.06858961 -0.36174184 0.0154222995
000030 7c b3 1c be 2b 8b e3 3c 7a 4f 41 3e 70 11 b2 be
       -0.15302843 0.027776321 0.18877974 -0.3477893
000040 58 fc 4a 3e a8 40 fe 3d e9 45 5d be 1b da b5 bd
       0.19822824 0.12414676 -0.216087 -0.08879491
000050 61 c0 db 3e eb f2 86 be f3 a2 31 be b0 80 65 be
       0.4292021 -0.26357207 -0.17347316 -0.22412372
000060 a1 b0 ac 3e
       0.33728507

bias f4 [5]
000000 6e d9 69 bd 1b dd b4 bd 43 b5 83 3d 95 de 17 bd
       -0.057092123 -0.08831235 0.06431057 -0.037077505
000010 f5 34 8b 3d
       0.0679721

weight f4 [20, 5]
000000 b1 6e 2b be 0a 9f ec bd f5 53 d0 3e 93 12 3a 3e
       -0.16741444 -0.11553772 0.40689054 0.18171148
000010 45 f1 ca 3e 2a 42 4f bc 34 e7 d7 3d 4b 0a 08 bc
       0.396372 -0.012650052 0.10542145 -0.008303235
000020 61 d5 ba be 6f dc f3 3e 1f 1f 33 3e 85 ab e1 3d
       -0.3649092 0.47629115 0.1749234 0.11019043
000030 45 70 30 3e 55 33 d1 3e 0e e2 85 be 8a 06 ea be
       0.17230327 0.40859476 -0.2614903 -0.45708114
000040 03 e6 00 be d9 99 9d 3e 4d 3e b9 3c 5e ff 0f 3f
       -0.12587743 0.3078144 0.022612715 0.56249034
000050 cf 81 9d bd 43 d4 de be 5b fd a7 3e 17 5b 8f 3e
       -0.07690775 -0.43521318 0.32810482 0.27999184
000060 83 5d a8 be 89 d9 9b be 13 14 7b 3e e2 a7 60 3e
       -0.32883844 -0.30439404 0.24519376 0.21939042
000070 e5 72 d2 be e1 5c b5 3e 8c 5b 33 be d4 b3 51 3e
       -0.41103283 0.35422423 -0.17515391 0.20478755
000080 06 af 17 be 83 4a 19 3d 23 fe 16 be 70 98 a4 3e
       -0.1481286 0.037424576 -0.14745383 0.3214755
000090 86 6f f2 be 65 55 ce 3e 3d 77 d5 3e 89 11 73 be
       -0.4735071 0.40299526 0.41692534 -0.23737158
0000a0 a4 15 a2 3c 51 94 a1 3e a2 83 68 be 9d 02 0d 3e
       0.01978571 0.3155847 -0.22706464 0.13770528
0000b0 f9 a2 9c 3e 3d c2 3a be 63 e2 b0 3e ac b8 5a 3e
       0.30593088 -0.18238159 0.3454772 0.21359509
0000c0 c1 80 d7 be dc 8a 35 be 1e 85 6e 3e 08 a4 42 be
       -0.4209042 -0.17728752 0.23292968 -0.19007885
0000d0 bc 08 b3 3d 45 df 35 3e c2 f1 1e 3f 7c 0c ac be
       0.087419 0.17760952 0.62087643 -0.33603275
0000e0 44 ff 84 3e e2 94 0c 3c 05 23 53 be 69 ee 56 be
       0.25976002 0.008580418 -0.20618828 -0.20989384
0000f0 1e 82 57 3e 2c a2 82 3e 9b 9e de bc c7 6c e7 be
       0.2104573 0.25514352 -0.027175238 -0.45200178
000100 db 8f ee be b8 d6 42 be e8 3e f4 3e bc 45 d3 3e
       -0.46594128 -0.19027221 0.47704244 0.4126414
000110 31 9c fe bd c4 0f 43 be e1 da 80 be 63 94 a8 3e
       -0.12432135 -0.19048983 -0.2516699 0.3292571
000120 cf 10 e4 3d 9d 41 55 be 56 b3 46 3e 95 0f c1 be
       0.111360185 -0.2082581 0.19404349 -0.377072
000130 44 2f 68 3e 68 2e 95 be 5e 9d a0 3e 95 08 bf 3e
       0.2267428 -0.29136968 0.31370062 0.37311235
000140 b2 fe 7f bd ca 50 96 be 66 36 e4 be c5 11 92 be
       -0.062498756 -0.29358512 -0.44572753 -0.28529182
000150 a1 bb c4 be 27 04 ff 3d 1a dc 08 3e 2e b0 67 bb
       -0.384244 0.12451964 0.13365212 -0.0035352814
000160 17 d7 ce be 13 f3 93 be 3b 62 cf 3e 33 3b 0d 3f
       -0.40398476 -0.28896388 0.4050463 0.55168456
000170 ce e3 04 be 48 36 65 3e b1 97 02 be 26 68 15 be
       -0.12977526 0.22383988 -0.12753178 -0.1459051
000180 d7 16 c7 3d 5f f4 a7 3e bd bd ad be 94 f8 6a bd
       0.09721153 0.32803628 -0.3393382 -0.05736597

bias f4 [20]
000000 fb 42 30 3e 25 ca f6 3c 26 23 49 3e 5a cf 27 be
       0.17213051 0.030125687 0.19642314 -0.16387692
000010 84 e9 98 be 37 d8 02 3c 14 95 b0 3e 60 5e a8 3e
       -0.29865658 0.00798612 0.34488738 0.32884502
000020 ac 77 02 bf d8 df 91 be 9d bd f4 bd f1 a9 99 3e
       -0.50963855 -0.28491092 -0.11950228 0.30012468
000030 12 eb 0a be ca 65 a7 be b3 a7 7d 3e cf 30 60 3b
       -0.13566235 -0.32694846 0.24771003 0.003420878
000040 da bc b0 bd e4 0b d1 3c d9 45 38 3e e0 ea 43 3e
       -0.086297706 0.025518365 0.17995395 0.19132566

weight f4 [5, 20]
000000 69 f4 3c 3e d3 67 25 be c3 4f ee bc 91 07 bc 3e
       0.1845261 -0.16152887 -0.029090768 0.36724523
000010 40 0a 84 3d 72 5b 9c 3d fe bb d3 bd 0d c8 06 be
       0.064472675 0.07634629 -0.10338591 -0.13162251
000020 29 2b 84 ba 58 43 99 3d 39 a4 f1 bc a8 e9 fb bd
       -0.0010083664 0.07483548 -0.029497253 -0.12300426
000030 db b7 a9 bd a5 d7 8a be 85 b5 a2 3d 29 01 c9 bd
       -0.08287021 -0.2711765 0.07944778 -0.098146744
000040 0b 92 ba bd 19 f4 e7 bd 74 b6 98 be 61 9e 8a be
       -0.09109887 -0.11325855 -0.298267 -0.2707396
000050 7c e2 be be bf 7e 98 be 80 90 37 bd 1c e9 17 3d
       -0.3728217 -0.297842 -0.04481554 0.037087545
000060 e0 9e 3e be e4 af 63 be 60 01 a5 3d c6 a1 be 3d
       -0.18615294 -0.22235066 0.08056903 0.093081996
000070 c9 76 02 bc 74 e4 7d 3d 31 b1 78 3e 23 bb 35 be
       -0.007962891 0.061985448 0.24286343 -0.17747168
000080 ba a4 38 be 6b 99 7e be ef 45 bc bc e8 45 10 be
       -0.18031588 -0.24863212 -0.022982566 -0.14089167
000090 de 51 a5 bd 36 59 30 be 4d c8 34 3e fc fb 0e be
       -0.080722556 -0.17221531 0.17654534 -0.13963312
0000a0 84 7b 2c 3e 36 a0 c3 bd 50 fd b9 bd b3 7c 2d 3d
       0.16843992 -0.09552042 -0.09081519 0.04235525
0000b0 7d dd 0c be f2 c9 3d 3e fa c1 7f 3d 4a c6 f5 bd
       -0.13756366 0.18534067 0.06244085 -0.12000711
0000c0 65 1f 29 3e 6a d7 7d 3e f6 8b 41 3e 87 a3 4a 3e
       0.16515882 0.24789205 0.18901047 0.19788943
0000d0 44 7a d7 bd 79 e7 7e bd 9d 8e aa 3d 29 6b 07 bc
       -0.10521367 -0.06223247 0.083279826 -0.008265295
0000e0 ea 7d 26 be 79 c9 7b 3e e8 b4 1c 3e 77 12 dd bc
       -0.1625897 0.24588574 0.15303385 -0.026986344
0000f0 8b d6 b0 be c2 9b f1 3d 49 9b 29 3d 88 50 c2 bd
       -0.34538683 0.117972866 0.041407857 -0.09488016
000100 72 45 7e bd e1 b6 4e 3e b5 48 f9 3d 48 d9 1e 3e
       -0.062077947 0.2018695 0.12172071 0.15512574
000110 13 65 0f bd ce b6 53 be e3 71 1d be 59 56 1d 3e
       -0.0350085 -0.20675203 -0.15375476 0.1536497
000120 9d 1b 78 3b 2d 1f 69 be 5d 8d 53 be ba 9d 25 bd
       0.0037858256 -0.22765799 -0.20659395 -0.040433623
000130 8d 67 32 be 02 c5 06 be b9 2e fd 3c 43 b1 60 be
       -0.17422314 -0.1316109 0.030906068 -0.2194262
000140 04 6e c7 3e 63 40 99 3e fd 98 1c 3d f5 59 d4 3e
       0.38951123 0.29931936 0.03823184 0.41474882
000150 15 a8 90 bd d8 6d 15 3e b6 a1 b8 bd e7 41 c3 bd
       -0.07063309 0.14592683 -0.09015219 -0.09534054
000160 29 b4 9f bd 72 2f fb 3d 06 2c 86 3e d2 ca fc bd
       -0.07798035 0.12264909 0.26205462 -0.123433724
000170 d3 0c 7b 3e 0b 4a 05 3e 5b 34 19 3e 19 a3 82 3e
       0.24516611 0.13016526 0.14961378 0.2551506
000180 c2 7a cc bd a8 ca 3f 3e 64 f7 37 3e 12 3b 9b bc
       -0.09984352 0.18729651 0.17965466 -0.018949065

bias f4 [5]
000000 5b a4 a0 3d 2d 28 83 be ea 69 b0 3b 7c 37 41 3e
       0.07843848 -0.2561659 0.0053837197 0.18868822
000010 0d b2 3d 3e
       0.18524952

weight f4 [5]
000000 04 83 66 3f a2 fa 73 3f c9 c6 8c 3f 3e af 85 3f
       0.90043664 0.9530431 1.0998164 1.0444105
000010 58 0e 75 3f
       0.9572501

bias f4 [5]
000000 7a fa 9b bd 3a 25 26 bd a2 b0 af 3d 6e 2d 4e bd
       -0.07616134 -0.040562846 0.08578612 -0.050336294
000010 07 ef a6 3d
       0.081510596

weight f4 [5]
000000 1a f2 79 3f e2 1c 6d 3f cc 47 85 3f 10 e4 7a 3f
       0.9763504 0.92622197 1.0412536 0.98004246
000010 c8 e0 7f 3f
       0.99952364

bias f4 [5]
000000 d4 99 94 bd fa 33 a3 bd 16 e5 32 3d e3 c7 8b 3b
       -0.07255903 -0.07968898 0.043675505 0.0042657717
000010 76 c5 ae 3d
       0.085337564

in_proj_weight f4 [15, 5]
000000 ca d9 02 bf 38 22 a0 3d b0 c3 c4 3e 54 ea 25 be
       -0.5111357 0.07819027 0.38430548 -0.1620267
000010 18 6c 46 3e 91 3a 8a be f4 4e b3 bd 3d 3c 05 3e
       0.19377172 -0.26997808 -0.087552935 0.1301126
000020 47 4d b1 3e a4 0c 30 bd 4f c5 99 3e 6a ad c1 3e
       0.3462927 -0.042980805 0.30033347 0.37827617
000030 ea 8a 6d bd dc 74 a4 3e 5c fd fb 3e 8e e0 09 3e
       -0.057993807 0.32120407 0.49216735 0.13464567
000040 5f 7c 9c be 6b 79 8c 3e bb 15 9f be 4a 00 0a be
       -0.30563638 0.27436385 -0.31071267 -0.13476673
000050 85 73 ef bd 2c d5 ba be b8 b0 a3 3e dc 34 c4 bd
       -0.116919555 -0.36490762 0.31970763 -0.095803946
000060 03 3e ba 3e be 53 b2 bd e1 72 a2 be 98 c2 c5 bd
       0.36375436 -0.08707379 -0.3172827 -0.096562564
000070 43 5e 92 be 22 5c ef be 3b 36 9c 3e 35 45 f6 3b
       -0.2858754 -0.4674998 0.30510125 0.0075155743
000080 cb c7 19 bd d6 23 4c 3e df 34 30 bd dc ca 1e bf
       -0.037544053 0.19935545 -0.04301917 -0.6202829
000090 38 e1 cb 3e 25 a4 ca 3e 1a af 2c be 27 05 0f 3f
       0.39820266 0.39578357 -0.16863671 0.55867237
0000a0 88 ee 11 3f 3f 05 b8 be 9a b6 8c be d3 3d ce 3e
       0.57004595 -0.35941502 -0.27483064 0.40281543
0000b0 21 8a 28 3e a3 0c 88 3e f0 54 5a be b7 e4 8e 3e
       0.16458942 0.2657214 -0.21321464 0.2790887
0000c0 6d b4 aa b9 24 91 07 bf 60 a0 6c 3e b5 6e f3 be
       -0.00032559354 -0.5295584 0.23108053 -0.475454
0000d0 f3 77 1c 3f b6 e0 44 3d 3a 97 bc be e4 84 d6 3e
       0.6112053 0.048065864 -0.36834127 0.41898263
0000e0 f6 d5 e3 bd 49 6c 3a 3e 73 6c d6 3e 25 75 00 bf
       -0.11124794 0.1820537 0.41879615 -0.5017875
0000f0 a2 0f 2d 3e d1 ab 55 3e 64 1f 0e be 9b 97 22 3f
       0.16900495 0.20866324 -0.13879162 0.6351258
000100 e7 11 26 bd c3 74 80 be 97 fb 80 3e 1b 62 b6 3d
       -0.040544417 -0.25089082 0.25191948 0.08905431
000110 8a 20 bf be 2b b5 f1 bd 64 e9 ac 3e 66 4c d4 3d
       -0.37329513 -0.11802133 0.33771813 0.10366134
000120 d6 80 e1 3e f3 ab 2c 3e 76 96 0b 3b
       0.44043607 0.16862468 0.0021299399

in_proj_bias f4 [15]
000000 1f 68 90 3d 0e 81 5d 3d 4e ec 81 bd 5c cc 09 3d
       0.070511095 0.054078154 -0.063439 0.033642158
000010 bc 20 70 3d 03 ce 88 b5 e3 ad df b6 d6 9e ad b7
       0.058624968 -1.0192747e-06 -6.666161e-06 -2.069717e-05
000020 68 e0 60 b7 ab 0b c8 37 44 f9 80 3d 2c 68 9e bd
       -1.3403689e-05 2.3847291e-05 0.06297544 -0.07734713
000030 89 3f b2 bd c2 73 ca bd 68 33 96 3d
       -0.087035246 -0.0988536 0.07334024

weight f4 [5, 5]
000000 68 a2 45 be ba 82 07 bd 9d 05 29 3e dc 1b 17 be
       -0.19300234 -0.033083655 0.16506048 -0.14756721
000010 35 b5 84 be f1 64 1f 3e 3f 73 e4 3d de 8a 97 3d
       -0.259195 0.1556585 0.11154794 0.07399534
000020 53 46 40 3d 4c 92 87 3c 57 ec 05 bf d7 93 66 3d
       0.046942066 0.016549252 -0.5231375 0.056293335
000030 a4 85 b3 3c 92 e1 c3 bd c8 39 2b 3c e5 b0 86 be
       0.02191431 -0.095645085 0.010450788 -0.26306835
000040 f6 2a 06 3e 05 33 05 3d 9f a1 2d be 78 fc e9 3b
       0.13102326 0.03251936 -0.16956185 0.0071406923
000050 31 df dd 3e d4 11 c1 be a0 cc 3b be 37 6f 6b be
       0.43334344 -0.37708914 -0.18339777 -0.22991644
000060 8b a4 a5 3e
       0.323521

bias f4 [5]
000000 da e5 72 bd c7 e1 01 bc 79 05 9c bd 57 59 4c 3c
       -0.059301235 -0.007927365 -0.07618231 0.012472472
000010 cd 0c a0 3d
       0.078149416

weight f4 [20, 5]
000000 a7 74 74 bd 40 24 91 be fa ec 85 3e 96 0b 54 3e
       -0.05968156 -0.2834797 0.2615736 0.20707545
000010 f4 60 a8 3e 96 c4 16 3b 12 f6 97 3d f9 3c ee bc
       0.3288647 0.0023005358 0.07419981 -0.029081808
000020 b7 34 b4 be 45 4f 0b 3f 31 8e 73 3e d8 12 e2 3d
       -0.35196468 0.5441783 0.2378471 0.110387504
000030 13 d6 2c 3e c8 d7 d0 3e de a1 88 be 80 8c cb be
       0.16878538 0.40789628 -0.26685995 -0.3975563
000040 64 78 43 be 1c f5 2e 3e 59 55 26 3e 57 d8 06 3f
       -0.19088894 0.1708569 0.16243495 0.5267386
000050 8b bb 94 bd 87 28 df be 42 e1 a6 3e 82 81 90 3e
       -0.072623335 -0.43585607 0.32593733 0.28223807
000060 68 f3 a7 be 40 8a 63 be e5 03 39 3e 49 b6 25 3e
       -0.32802892 -0.22220707 0.18067892 0.16182818
000070 0c 22 b5 be 14 c8 c1 3e 10 d5 21 be 1d 7f 61 3e
       -0.35377538 0.3784796 -0.15803933 0.22021146
000080 ef b0 20 be e3 4a 43 3d 1d 98 79 be f2 69 62 3e
       -0.15692495 0.04767884 -0.24374433 0.22110727
000090 c0 d1 d9 be 3d 14 e6 3e a8 9a bb 3e 76 7b 8e be
       -0.4254284 0.44937316 0.3664143 -0.27828568
0000a0 ea 2a 70 3c cc e6 a7 3e f5 03 6b be 70 ce 02 3e
       0.014658669 0.32793272 -0.22950728 0.12774062
0000b0 a9 ed 9e 3e 71 34 e8 bd b0 d8 98 3e b9 1a 12 3e
       0.31040695 -0.113381274 0.2985282 0.14268006
0000c0 b8 79 b7 be 92 f2 79 be fb ee 50 3e 20 de 13 be
       -0.35835052 -0.2440894 0.20403664 -0.14440203
0000d0 e9 6e 22 3e fd 5e 22 3e c2 f6 1a 3f 28 0e b0 be
       0.15862621 0.15856548 0.6053277 -0.343858
0000e0 7b 0b 80 3e 61 7f 8e bb c2 95 40 be 23 ac 57 be
       0.2500876 -0.004348681 -0.18807128 -0.21061759
0000f0 b7 19 87 3e 0b 1a 58 3e d5 c0 92 bd 2a d6 d5 be
       0.26386806 0.21103685 -0.07165686 -0.41764957
000100 d4 45 cb be 6c aa 30 be 3a b2 e6 3e 03 96 c8 3e
       -0.39701712 -0.17252511 0.4505785 0.3917695
000110 1c e4 df bd 0b bc 09 be f7 e0 ea bd f8 df 8a 3e
       -0.1093218 -0.13450639 -0.1146869 0.27124
000120 52 2c 39 3d ad 67 14 be e9 49 0f 3e be b2 de be
       0.045208283 -0.14492674 0.13993038 -0.43495744
000130 00 92 8f 3e 39 1f 5d be ae 95 86 3e 5d b7 cf 3e
       0.28041077 -0.21593942 0.26286072 0.40569583
000140 23 03 2f bd a1 96 8e be 72 7f dc be 11 15 9a be
       -0.0427276 -0.27849296 -0.43065983 -0.30094197
000150 29 d7 cc be 3e 2e 10 3e ba 95 dc 3d 36 64 f4 bc
       -0.40007904 0.1408014 0.107707456 -0.02983294
000160 61 37 c4 be 6c d7 68 be 11 5a 80 3e f0 2e e5 3e
       -0.383235 -0.22738427 0.25068715 0.44762373
000170 6b c9 8a be 65 90 b8 3e 17 e4 b1 bc c0 0e 72 be
       -0.27106795 0.36047664 -0.021715207 -0.23638439
000180 3b 0d 80 3d bb f9 9b 3e aa e0 a2 be 95 a1 94 bc
       0.062525235 0.30463967 -0.3181203 -0.018143455

bias f4 [20]
000000 93 00 a6 3d 8e 1b 84 3c 92 a7 49 3e 35 80 81 be
       0.08105578 0.01612642 0.19692829 -0.25293127
000010 f9 ba 99 be 08 2b 48 bd 79 fd a2 3e 90 05 bc 3e
       -0.3002546 -0.048869163 0.3183401 0.36722994
000020 3c c1 ff be 68 e6 b6 be c0 80 08 be dd 5c 8f 3e
       -0.49952114 -0.3572266 -0.13330364 0.28000537
000030 13 28 33 be e9 44 af be 75 fa 40 3e b3 09 71 3d
       -0.17495756 -0.34232262 0.18845542 0.05884714
000040 16 ab 90 bd 78 03 c0 3b 0e f8 77 3d df 11 2d 3e
       -0.07063882 0.0058597885 0.060539298 0.16901349

weight f4 [5, 20]
000000 c4 de 0a be 66 7b 50 be 19 e5 23 ba 59 5a 56 3e
       -0.13561541 -0.20359573 -0.0006252095 0.20932902
000010 5c 7c 8b 3d 9a 0b 98 3d d8 fb c0 bd e9 5d dc bd
       0.06810829 0.07424088 -0.094230354 -0.107600994
000020 cc be b1 3c 59 f2 bc 3d be 9e d5 bd 43 c1 e4 bd
       0.021697424 0.09225912 -0.10430668 -0.11169674
000030 5b a9 0e bd d0 31 7f be 1c 31 b3 3d 1a 87 c9 bc
       -0.03482948 -0.24921346 0.08749601 -0.024600554
000040 d1 72 a9 bd eb 4b a4 bd e4 86 27 be f0 0f 85 be
       -0.082738526 -0.08022293 -0.1636005 -0.25988722
000050 25 e3 50 be b5 d1 6b be 19 01 45 bd 40 f2 89 3d
       -0.20399149 -0.23029216 -0.04809675 0.06735659
000060 c6 7b 17 be 05 7f f7 bd e7 8d 47 3e 03 3d d3 3d
       -0.1479331 -0.12084774 0.19487725 0.103143714
000070 cb 46 e8 bc b8 d3 41 3e 23 fe f3 3d 43 64 8e bd
       -0.02835407 0.1892842 0.11913707 -0.06952717
000080 29 1f 15 be be 16 10 be 60 17 b3 3d 5f 50 46 be
       -0.14562668 -0.14071175 0.08744693 -0.19366597
000090 a7 19 b9 bd 86 d3 e1 bd de 7b c8 3d 4f b3 0d bd
       -0.09038096 -0.11026673 0.09789251 -0.03459483
0000a0 cc 37 6a 3d 02 9d 52 be 1c 96 2e be 20 9a 1a be
       0.05718212 -0.20567706 -0.1704945 -0.15097857
0000b0 bf 97 29 be d5 9c b7 3d 0d fd 3d bd 85 fe 7c be
       -0.16561793 0.0896546 -0.046383906 -0.24706466
0000c0 1e d3 f7 3d cd ad f6 3d 55 65 aa 3c 14 03 9b 3d
       0.12100814 0.120448686 0.020800272 0.075689465
0000d0 76 16 7a be ed 4d 48 be b7 9c 3c bd 5b 33 10 be
       -0.2442263 -0.19560976 -0.046047892 -0.1408209
0000e0 38 c2 34 be 1a b3 bd 3d 18 e8 16 3d 6b b1 37 be
       -0.17652214 0.092626765 0.036842436 -0.17938773
0000f0 a3 64 33 be f4 c8 10 3e 2e 22 23 3d b4 f5 fb 3d
       -0.17518859 0.14139158 0.03982752 0.123027235
000100 9a 5e 72 bd 53 14 79 3e 2f a7 17 3e 2b 44 1a 3e
       -0.05917225 0.2432416 0.14809869 0.15065067
000110 32 07 3d bd 04 9f 40 be 3e 43 8b 3d 7f 94 3b 3e
       -0.04614944 -0.1881066 0.06799935 0.18318366
000120 88 ca ee bb 08 dc 53 be 68 10 2c be dc fa e7 3c
       -0.007287327 -0.20689404 -0.16803133 0.028317861
000130 75 46 31 be b4 9d fa bd 4f 75 53 b9 6f ca 37 be
       -0.17312033 -0.12237111 -0.00020166229 -0.17948316
000140 55 1a 97 3e 2a 1f 99 3e 16 3c 88 3c 12 91 b7 3e
       0.29512277 0.2990659 0.016630214 0.35852867
000150 01 ca a9 bd 6e 45 0d 3e ea 37 cf bd 65 49 d3 bd
       -0.08290482 0.13796017 -0.10118087 -0.10316733
000160 c7 d6 98 bd 95 b7 cf 3d dd 45 be 3e cf 9b 0b be
       -0.074628405 0.10142437 0.37162676 -0.13633655
000170 f6 20 55 3e aa bd ce 3d ac f7 0a 3e bb dd ad 3e
       0.20813355 0.10094769 0.13571042 0.3395823
000180 e6 50 d0 bd 30 aa 20 3e 40 a7 da 3d fa 02 fa bc
       -0.1017168 0.15689921 0.10676432 -0.030518997

bias f4 [5]
000000 4e 7a b3 3d 62 ee 1f be ab 59 0f be 69 37 61 3e
       0.08763562 -0.1561828 -0.1399905 0.21993794
000010 2f 14 37 3e
       0.17878793

weight f4 [5]
000000 ed b8 84 3f ce de 81 3f 73 de 68 3f 60 e3 78 3f
       1.0368935 1.014612 0.9096443 0.97221947
000010 31 36 85 3f
       1.0407163

bias f4 [5]
000000 9a 3b 82 bd 53 53 96 bb ef 6d b8 bd 82 9d 88 3c
       -0.06359024 -0.0045875697 -0.09005343 0.016676668
000010 4e c0 af 3d
       0.08581601

weight f4 [5]
000000 4b aa 84 3f 40 49 82 3f 6d cb 68 3f 50 ec 6f 3f
       1.0364469 1.0178604 0.90935403 0.9371996
000010 6f 34 85 3f
       1.0406626

bias f4 [5]
000000 7e 08 79 bd 55 f1 e2 ba de 9f c8 bd 30 69 53 3d
       -0.060799114 -0.0017314354 -0.09796117 0.051613986
000010 5e 59 91 3d
       0.070971236

in_proj_weight f4 [15, 5]
000000 8c 94 06 bf f0 fc 9f 3d 58 01 b7 3e 7e 04 11 be
       -0.52570415 0.07811916 0.35743213 -0.1416187
000010 87 8a 70 3e 70 22 96 be e2 64 b8 bd 14 e2 de 3d
       0.23490344 -0.2932315 -0.09003617 0.10882965
000020 42 35 b9 3e 9b e7 b9 bc 63 da ad 3e b0 df c3 3e
       0.36173445 -0.022693446 0.33955678 0.38256598
000030 45 45 f2 bc a0 95 99 3e b9 fa ec 3e 3d a5 3d 3e
       -0.029574046 0.29996967 0.46285036 0.18520065
000040 bb 9c a6 be ed 41 81 3e c2 69 96 be b0 e6 05 be
       -0.3254145 0.2524561 -0.29377562 -0.13076282
000050 65 90 fe bd df f6 ba be e0 e4 98 3e 27 b6 a4 bd
       -0.12429885 -0.36516473 0.29862118 -0.08042555
000060 1c 16 c8 3e 7a f8 dc bd 24 31 9e be 88 e7 db bd
       0.39079368 -0.10789581 -0.30896866 -0.107375205
000070 29 93 8f be 8e 61 e4 be b3 d0 9e 3e fe 0f 23 3c
       -0.28041962 -0.44605678 0.310186 0.009952543
000080 b3 24 11 bd 4a 42 60 3e 32 91 74 bd 3a 25 16 bf
       -0.03543539 0.21900287 -0.05970878 -0.58650553
000090 af d2 c6 3e ca aa d5 3e c3 1e 3e be 5a 08 06 3f
       0.38832614 0.41731864 -0.18566422 0.52356493
0000a0 bc af 09 3f 2a 23 b4 be 65 3c 97 be 8a 5f cf 3e
       0.53783774 -0.35183078 -0.29538265 0.40502578
0000b0 6f 81 4d 3e 15 0a 81 3e ea 00 58 be 55 9c 8a 3e
       0.20068906 0.25203004 -0.21094099 0.27072397
0000c0 36 c0 6e 3b cc 2b 02 bf ab 78 79 3e 52 11 f0 be
       0.0036430485 -0.5084808 0.24362437 -0.46888214
0000d0 5c 66 16 3f 6a cc 78 3d 25 1e af be dc 4d d2 3e
       0.5874994 0.06074182 -0.34202686 0.41075027
0000e0 e1 ca f8 bd 8f d2 60 3e 36 58 cc 3e ca 9e 09 bf
       -0.12148071 0.21955322 0.3991105 -0.5375792
0000f0 d8 46 25 3e 19 a0 4e 3e aa dc d0 bd 25 a8 1d 3f
       0.16140306 0.2017826 -0.10198338 0.61584693
000100 aa 7d d5 bd 2e c6 83 be 0f 09 6b 3e 56 0a fe 3d
       -0.10424359 -0.25737137 0.22952674 0.12404315
000110 c1 18 c9 be ae d3 19 be 9e 31 b8 3e 62 c5 e0 3d
       -0.39276698 -0.15022156 0.35975355 0.10975148
000120 51 08 d0 3e 63 64 43 3e fc fa d0 3c
       0.40631345 0.19081263 0.025510304

in_proj_bias f4 [15]
000000 12 94 5c 3d a0 61 23 3d 04 ab 35 bd 88 20 95 3c
       0.05385215 0.039888024 -0.044352546 0.018203989
000010 a6 ae 3b 3d 9c 25 5a 37 a5 f2 9d b5 cd 61 8d 36
       0.045820855 1.3002569e-05 -1.176803e-06 4.213513e-06
000020 af ee 56 38 ad 1b 36 37 a9 9e 5a 3d a0 a9 86 bd
       5.1243867e-05 1.0854489e-05 0.053373966 -0.06575322
000030 0a 03 a3 bd e6 2e af bd d1 85 5f 3d
       -0.07959564 -0.08553867 0.054570977

weight f4 [5, 5]
000000 28 f0 e3 bd 1d 56 06 bc c6 5a 1f 3e 1e ce 10 be
       -0.111297905 -0.008199242 0.15561971 -0.14141127
000010 13 b8 2a be 61 3a 51 3e c6 d5 ea 3c 15 86 7b 3c
       -0.16671781 0.20432426 0.028666388 0.015351792
000020 2c b7 a3 3d b1 93 81 3d ed 0b d2 be ef c0 76 3d
       0.07993922 0.06326998 -0.41024724 0.06024259
000030 b0 97 90 3b fe fb a9 bd 70 7e 0c 3e 35 44 bf be
       0.004412614 -0.08300017 0.13720107 -0.37356725
000040 be ca e7 3d da 24 98 3c 73 c6 1c be 5d 2f e4 bd
       0.11317967 0.01857226 -0.15310077 -0.11141846
000050 23 13 a2 3e 61 63 c1 be 15 a2 21 be a7 c9 79 be
       0.31655225 -0.37771133 -0.15784486 -0.2439333
000060 c1 f2 46 3e
       0.19428541

bias f4 [5]
000000 8b 8f 65 bd 01 89 03 3d 75 b7 86 bd 3b e4 0e 3d
       -0.056045096 0.03211308 -0.065779604 0.034885626
000010 74 88 83 3d
       0.06422511

weight f4 [20, 5]
000000 07 e5 5b bc a5 6b fb be 09 72 cd bc 29 30 f2 3e
       -0.013421304 -0.49105564 -0.02507879 0.47302368
000010 9d fb 91 3e e7 19 08 3d 52 b5 5e 3d 0b ab 7f bd
       0.28512278 0.033227827 0.05437214 -0.06241898
000020 32 09 a5 be 91 99 03 3f 1f 0f 7e 3e dd 31 fb 3d
       -0.32233578 0.514062 0.24810456 0.1226537
000030 0a e7 35 3e 6c 7b cb 3e f1 be 8c be 95 26 be be
       0.17763916 0.397426 -0.27489427 -0.3713881
000040 c6 0e 27 be 9f 9d 0e 3e 46 c8 5e 3e 29 8a fb 3e
       -0.1631423 0.13927315 0.21756086 0.49128845
000050 e2 8b 92 bd 0c 1a de be 18 d9 a7 3e 7b 70 8f 3e
       -0.07155587 -0.43379247 0.32782817 0.28015503
000060 a7 42 a9 be c7 34 25 be fd 83 2f 3e 97 15 14 3e
       -0.33058664 -0.16133414 0.17140193 0.14461361
000070 26 8c a9 be ee 7f af 3e 21 11 89 be 89 57 a6 3e
       -0.33114737 0.3427729 -0.2677088 0.3248866
000080 97 c2 68 bc 06 ac c4 bd cc e9 4d be 09 53 2d 3e
       -0.01420655 -0.09603123 -0.20108718 0.16926207
000090 48 45 d2 be 66 b4 f5 3e 5b e9 af 3e 80 15 92 be
       -0.41068482 0.47989196 0.34357724 -0.28532028
0000a0 03 f5 d8 bc e1 f4 9b 3e e6 99 aa be 6c ba 1c 3e
       -0.026484018 0.30460265 -0.3332054 0.1530549
0000b0 54 c0 bc 3e dd e0 07 be 0c 72 9b 3e 36 3d 2c 3e
       0.36865485 -0.13269372 0.30360448 0.16820225
0000c0 b7 17 c3 be 76 c6 68 be 0b 8f 2f 3e f8 fd 80 bc
       -0.3810403 -0.22731957 0.1714441 -0.015746102
0000d0 f2 98 f0 3d 17 7a 7b 3e b4 4e 08 3f 35 18 c1 be
       0.11747922 0.24558292 0.5324509 -0.3771378
0000e0 1c ee 7d 3e a8 ec 83 3a 5f 6d 40 be 07 a0 4c be
       0.24797863 0.0010065036 -0.18791722 -0.1998292
0000f0 90 08 8d 3e 67 4c 53 3e f5 9a a6 bd ac 0c d1 be
       0.27545595 0.20634614 -0.081350245 -0.4082998
000100 6c c7 c8 be e9 f3 18 be 94 82 e4 3e 31 a8 c0 3e
       -0.39214647 -0.14936794 0.44630873 0.3762832
000110 13 0e c2 bd 88 6c 0c be 8c 1a f7 bd f6 b9 95 3e
       -0.09475341 -0.13713276 -0.1206561 0.2924344
000120 dd f5 87 3d 6f 75 21 be f5 ea ef 3d 62 7c cb be
       0.066386916 -0.15767454 0.11714736 -0.39743334
000130 23 57 72 3e 32 cb 77 be 0b 45 a4 3e 5c da b7 3e
       0.23666053 -0.24198607 0.32083926 0.35908782
000140 cf 1f 69 3b 7a f3 64 be ed dc bf be 98 15 bd be
       0.0035571938 -0.22358504 -0.3747324 -0.36930537
000150 cc 22 db be 1d 80 91 3e a8 ca 67 3c bc 84 09 be
       -0.42799985 0.28418055 0.014147438 -0.1342954
000160 6e fc 89 be b9 17 60 be bd ac 75 3e 74 26 e4 3e
       -0.269504 -0.2188405 0.23991676 0.44560587
000170 3f 97 8b be 26 c2 b9 3e 4f 98 a4 bc 5b 38 8b be
       -0.2726383 0.36280936 -0.020092158 -0.27191433
000180 e0 aa 66 3d fd 66 99 3e 19 68 9f be 1e cb 80 3c
       0.056315303 0.29961386 -0.31134108 0.015721854

bias f4 [20]
000000 bf 72 94 3c 27 b9 52 bc 28 eb 53 3e a9 33 94 be
       0.018121121 -0.012861527 0.20695174 -0.28945664
000010 70 c0 98 be be 85 9a bd b5 d4 e4 3e 55 95 c9 3e
       -0.29834318 -0.075450405 0.44693533 0.39371744
000020 56 39 ec be 3d a6 ac be 79 db 62 be c8 d6 91 3e
       -0.46137494 -0.3372058 -0.22154035 0.28484178
000030 4a 1d 3c be 20 39 b6 be 1f a9 4c 3e 7c fe bf 3c
       -0.18370548 -0.35590458 0.1998639 0.023436777
000040 ec 14 5f bc b0 33 cf bd 0a d4 6e 3d 70 1f 32 3e
       -0.013615828 -0.101172805 0.058307685 0.17394805

weight f4 [5, 20]
000000 20 85 37 be fa 84 38 be 94 65 47 3b 21 7e 18 3e
       -0.17921877 -0.18019477 0.0030425536 0.14891864
000010 1e f1 8f 3d 97 54 ad 3d c9 ab c2 bd a1 12 d3 bd
       0.07028411 0.084634 -0.09505422 -0.103062876
000020 f0 31 2c 3e 0c 7a c9 3d 75 91 65 bd 48 84 dd bd
       0.16815925 0.09837732 -0.05604692 -0.10816246
000030 1a 92 d1 bc f7 3c 7a be e9 48 c1 3d c2 10 b4 bd
       -0.025582362 -0.24437319 0.09437735 -0.08792259
000040 34 fd b8 bd a6 d3 5c bd bd 02 25 be 24 33 81 be
       -0.0903267 -0.05391278 -0.16114326 -0.2523433
000050 62 9a de bd c2 59 13 be b1 f5 52 bd 76 8c 07 3e
       -0.1086929 -0.14389709 -0.05150384 0.13237175
000060 56 5a 19 be 38 11 96 bd d5 9c 62 3e be 7a dd 3d
       -0.14975867 -0.07327503 0.22130139 0.10814427
000070 3d 40 09 be f7 9d 56 3e 56 b5 be 3d 93 f7 12 bd
       -0.13403411 0.20958696 0.09311931 -0.035880636
000080 fc a2 19 be 99 fd e8 bd c0 4e 01 3e c1 1f de bd
       -0.1500358 -0.11376495 0.12627697 -0.108459
000090 10 18 b0 bd f7 e4 ec bd ce ff ca 3d f2 19 1c 3c
       -0.085983396 -0.11567109 0.09912072 0.00952767
0000a0 da 84 c2 bd e2 20 48 be 9c 66 28 be 26 fb 49 be
       -0.09497996 -0.19543794 -0.16445392 -0.19724712
0000b0 04 e7 1c be b8 a5 df 3d 5f 2d 1e bd 34 77 5f be
       -0.153225 0.1092028 -0.038617488 -0.21822816
0000c0 29 fe c9 3d 38 7e 0a 3e 3c 6e 92 be 7e 16 c7 3d
       0.0986293 0.13524711 -0.28599727 0.09721087
0000d0 8d 88 72 be fd a3 31 be c7 0d f3 bc f8 44 39 be
       -0.23684902 -0.17347713 -0.029669655 -0.18092716
0000e0 43 9f 66 be ff e9 f6 3d 59 44 19 3d 3c d8 1f be
       -0.22521691 0.1205635 0.037418697 -0.1560983
0000f0 f2 93 4a be 08 66 fa 3d 8a 24 2a 3d 45 21 08 3e
       -0.19782999 0.12226492 0.041538753 0.13293941
000100 fe 2d 5e bd d8 4d 75 3e ef 73 24 3e 0c 72 0b 3e
       -0.05424308 0.23955476 0.1605985 0.13617724
000110 68 fa 0b be 6d c5 46 be 9d 49 fd 3d 55 ab 39 3e
       -0.13669741 -0.1941125 0.12367556 0.18131764
000120 14 7e 3f bc 91 b3 5a be 23 7c 2c be 85 e7 32 3d
       -0.011687774 -0.21357562 -0.1684423 0.043677825
000130 4d fd 2f be 13 2f 1b be 8f 58 1f 3b 26 f2 3b be
       -0.1718647 -0.15154676 0.002431426 -0.18354091
000140 d5 b0 b0 3d 1d a1 7f 3e 2f b8 66 3c 8c 9c 90 3e
       0.08627478 0.24963804 0.014081999 0.28244436
000150 99 08 b4 bd bc 24 e5 3d 47 c6 d3 bd c9 56 e4 bd
       -0.087907024 0.11188647 -0.10340553 -0.111493655
000160 58 e3 b2 bd 4a c2 bc 3d 5e b7 56 3e 52 67 19 be
       -0.08734769 0.09216745 0.20968387 -0.1498082
000170 d9 e5 51 3e 31 a3 b2 3d b7 93 f5 3d 73 68 8b 3e
       0.20497836 0.087225325 0.11991065 0.27228126
000180 ed 0d c1 bd b7 c7 0c 3e 2c 5c d5 3d c8 6e 56 bd
       -0.09426484 0.1374806 0.10417971 -0.052351743

bias f4 [5]
000000 90 c6 be 3d c6 60 fc bd ae b4 f7 bd ed 14 58 3e
       0.093152165 -0.123231456 -0.12095009 0.21101733
000010 95 67 23 3e
       0.15957482

weight f4 [5]
000000 eb 1e 86 3f e4 38 84 3f d8 79 70 3f 0b 83 75 3f
       1.0478185 1.0329862 0.9393592 0.9590308
000010 fe 03 85 3f
       1.0391843

bias f4 [5]
000000 7f e3 61 bd 62 ff fe 3c fe 30 93 bd 29 a0 20 3d
       -0.055148598 0.031127635 -0.07187079 0.03921524
000010 6d 95 87 3d
       0.066202976

weight f4 [5]
000000 50 b1 8b 3f d8 43 85 3f ac 56 76 3f e1 25 7b 3f
       1.0913486 1.0411329 0.96226 0.98104674
000010 2f e6 84 3f
       1.0382746

bias f4 [5]
000000 68 44 9c bd 5a 02 69 3c 1d 7a b5 bd 3e 03 98 ba
       -0.07630235 0.014221752 -0.08861182 -0.0011597646
000010 16 e9 82 3d
       0.06392114

weight f4 [5, 5]
000000 d1 ac 8c be 39 d1 19 be 49 02 26 3c df 66 65 3e
       -0.27475598 -0.15021218 0.010132381 0.22402523
000010 b2 35 d4 bd 3f 1c d2 bd 59 d0 f5 3e 06 7a 59 3d
       -0.10361804 -0.10259294 0.4801052 0.053094886
000020 cd 89 17 3e d4 dd d8 3e 9f ef 0b bf 30 d6 10 3e
       0.1479866 0.4235674 -0.5466251 0.14144206
000030 98 d5 33 be b3 9c ac 3d fd c4 27 3d e2 46 46 3e
       -0.17561948 0.084283255 0.040959347 0.19362977
000040 24 43 b1 be 19 d1 f5 bc 83 02 c7 3e 74 87 9a be
       -0.34621537 -0.030006932 0.38869104 -0.30181468
000050 95 ad d0 bd 88 81 a0 3e bc e7 4a 3e ab 5c 2d 3e
       -0.10189358 0.31348825 0.19814962 0.16929881
000060 7b 45 63 be
       -0.22194473

bias f4 [5]
000000 fd 08 6a be cf 68 f7 bd b1 bc 40 3e ae ed 2d be
       -0.22854991 -0.120805375 0.1882198 -0.16985199
000010 9c 79 a7 3e
       0.32709968
